checkpoints/epoch10.pth (torch, 930738 bytes, 12 tensors)

mel_extractor.spectrogram.window f4 [2048]
0	0x00000000	0.0
1	0x361e0000	2.3543835e-06
2	0x371e0000	9.417534e-06
3	0x37b1c000	2.1189451e-05
4	0x381de000	3.7640333e-05
5	0x3876c000	5.8829784e-05
6	0x38b1a000	8.46982e-05
7	0x38f1d000	0.000115305185
8	0x391de800	0.00015059114
9	0x3947d800	0.00019058585
10	0x3976b800	0.00023528934
11	0x39954400	0.0002847016
12	0x39b1a400	0.0003388226
13	0x39d07800	0.00039762259
14	0x39f1c400	0.00046113133
15	0x3a0ac400	0.00052934885
16	0x3a1de200	0.00060227513
17	0x3a323a00	0.0006798804
18	0x3a47d000	0.0007622242
19	0x3a5e9e00	0.0008492172
20	0x3a76aa00	0.0009409487
21	0x3a87f800	0.0010373592
22	0x3a953900	0.0011384785
23	0x3aa31700	0.0012442768
24	0x3ab19300	0.0013547838
25	0x3ac0ac00	0.0014699697
26	0x3ad06300	0.0015898645
27	0x3ae0b700	0.0017144382
28	0x3af1a800	0.0018436909
29	0x3b019b80	0.0019776523
30	0x3b0ab180	0.0021162927
31	0x3b141600	0.002259612
32	0x3b1dc980	0.0024076402
33	0x3b27cb80	0.0025603473
34	0x3b321b80	0.0027177036
35	0x3b3cba80	0.0028797686
36	0x3b47a800	0.0030465126
37	0x3b52e400	0.0032179356
38	0x3b5e6e80	0.0033940375
39	0x3b6a4700	0.0035747886
40	0x3b766e80	0.0037602484
41	0x3b817200	0.0039503574
42	0x3b87d3c0	0.0041451156
43	0x3b8e5d00	0.0043445826
44	0x3b950d40	0.0045486987
45	0x3b9be480	0.004757464
46	0x3ba2e300	0.004970908
47	0x3baa0880	0.0051890016
48	0x3bb15500	0.005411744
49	0x3bb8c8c0	0.0056391656
50	0x3bc06340	0.0058712065
51	0x3bc82500	0.0061079264
52	0x3bd00dc0	0.0063492954
53	0x3bd81d80	0.0065953135
54	0x3be05400	0.006845951
55	0x3be8b180	0.007101238
56	0x3bf13600	0.0073611736
57	0x3bf9e180	0.0076257586
58	0x3c0159e0	0.007894963
59	0x3c05d660	0.008168787
60	0x3c0a6660	0.00844726
61	0x3c0f09c0	0.008730352
62	0x3c13c080	0.009018064
63	0x3c188aa0	0.0093103945
64	0x3c1d6820	0.009607345
65	0x3c225920	0.009908944
66	0x3c275d40	0.010215104
67	0x3c2c74e0	0.010525912
68	0x3c319fc0	0.01084131
69	0x3c36de00	0.011161327
70	0x3c3c2f80	0.011485934
71	0x3c419440	0.011815131
72	0x3c470c60	0.0121489465
73	0x3c4c97a0	0.012487322
74	0x3c523640	0.012830317
75	0x3c57e800	0.013177872
76	0x3c5dad00	0.013530016
77	0x3c638540	0.01388675
78	0x3c6970a0	0.014248043
79	0x3c6f6f40	0.014613926
80	0x3c758100	0.014984369
81	0x3c7ba5e0	0.015359372
82	0x3c80ef00	0.015738964
83	0x3c841490	0.016123086
84	0x3c8743b0	0.016511768
85	0x3c8a7c50	0.01690498
86	0x3c8dbe90	0.017302781
87	0x3c910a50	0.017705113
88	0x3c945f90	0.018111974
89	0x3c97be50	0.018523365
90	0x3c9b2690	0.018939286
91	0x3c9e9860	0.019359767
92	0x3ca213a0	0.019784749
93	0x3ca59850	0.02021423
94	0x3ca92690	0.02064827
95	0x3cacbe30	0.021086782
96	0x3cb05f50	0.021529824
97	0x3cb409e0	0.021977365
98	0x3cb7bde0	0.022429407
99	0x3cbb7b50	0.022885948
100	0x3cbf4230	0.02334699
101	0x3cc31270	0.023812503
102	0x3cc6ec10	0.024282485
103	0x3ccacf20	0.024756968
104	0x3ccebb90	0.025235921
105	0x3cd2b150	0.025719315
106	0x3cd6b080	0.026207209
107	0x3cdab900	0.026699543
108	0x3cdecae0	0.027196348
109	0x3ce2e600	0.027697563
110	0x3ce70a90	0.028203279
111	0x3ceb3860	0.028713405
112	0x3cef6f80	0.029227972
113	0x3cf3afe0	0.02974695
114	0x3cf7f9a0	0.030270398
115	0x3cfc4c90	0.030798227
116	0x3d005468	0.031330496
117	0x3d028728	0.031867176
118	0x3d04be80	0.032408237
119	0x3d06fa80	0.03295374
120	0x3d093b10	0.033503592
121	0x3d0b8040	0.034057856
122	0x3d0dca10	0.03461653
123	0x3d101870	0.035179555
124	0x3d126b68	0.03574696
125	0x3d14c2f8	0.03631875
126	0x3d171f18	0.036894888
127	0x3d197fc8	0.037475377
128	0x3d1be510	0.038060248
129	0x3d1e4ee0	0.03864944
130	0x3d20bd40	0.039242983
131	0x3d233028	0.039840847
132	0x3d25a7a0	0.040443063
133	0x3d2823a8	0.04104963
134	0x3d2aa428	0.041660458
135	0x3d2d2938	0.042275637
136	0x3d2fb2d0	0.04289514
137	0x3d3240e0	0.0435189
138	0x3d34d378	0.044146985
139	0x3d376a90	0.04477936
140	0x3d3a0628	0.045416027
141	0x3d3ca638	0.046056956
142	0x3d3f4ac0	0.046702147
143	0x3d41f3c8	0.04735163
144	0x3d44a140	0.048005342
145	0x3d475338	0.048663348
146	0x3d4a09a0	0.049325585
147	0x3d4cc478	0.049992055
148	0x3d4f83c0	0.050662756
149	0x3d524780	0.05133772
150	0x3d550fa8	0.052016884
151	0x3d57dc38	0.05270025
152	0x3d5aad38	0.05338785
153	0x3d5d82a0	0.05407965
154	0x3d605c68	0.054775625
155	0x3d633aa0	0.05547583
156	0x3d661d38	0.05618021
157	0x3d690428	0.05688873
158	0x3d6bef80	0.057601452
159	0x3d6edf38	0.058318347
160	0x3d71d348	0.059039384
161	0x3d74cbb0	0.059764564
162	0x3d77c870	0.060493886
163	0x3d7ac988	0.06122735
164	0x3d7dcef8	0.06196496
165	0x3d806c5c	0.06270668
166	0x3d81f364	0.06345251
167	0x3d837c94	0.06420246
168	0x3d8507ec	0.064956516
169	0x3d869568	0.06571466
170	0x3d882508	0.06647688
171	0x3d89b6cc	0.06724319
172	0x3d8b4ab4	0.06801358
173	0x3d8ce0bc	0.06878802
174	0x3d8e78e8	0.06956655
175	0x3d901330	0.0703491
176	0x3d91af98	0.0711357
177	0x3d934e1c	0.071926326
178	0x3d94eec0	0.072721004
179	0x3d969180	0.07351971
180	0x3d983658	0.0743224
181	0x3d99dd4c	0.07512912
182	0x3d9b8658	0.075939834
183	0x3d9d317c	0.07675454
184	0x3d9edeb4	0.07757321
185	0x3da08e04	0.07839587
186	0x3da23f6c	0.07922253
187	0x3da3f2e4	0.08005312
188	0x3da5a86c	0.080887645
189	0x3da76008	0.081726134
190	0x3da919b8	0.082568586
191	0x3daad570	0.08341491
192	0x3dac933c	0.0842652
193	0x3dae5314	0.0851194
194	0x3db014f8	0.085977495
195	0x3db1d8e4	0.08683947
196	0x3db39ee0	0.087705374
197	0x3db566e0	0.088575125
198	0x3db730e8	0.08944875
199	0x3db8fcf8	0.09032625
200	0x3dbacb0c	0.09120759
201	0x3dbc9b28	0.09209281
202	0x3dbe6d44	0.092981845
203	0x3dc04164	0.09387472
204	0x3dc21784	0.094771415
205	0x3dc3efa4	0.09567192
206	0x3dc5c9c0	0.096576214
207	0x3dc7a5e0	0.09748435
208	0x3dc983f8	0.09839624
209	0x3dcb640c	0.09931192
210	0x3dcd461c	0.10023138
211	0x3dcf2a24	0.101154596
212	0x3dd11020	0.10208154
213	0x3dd2f818	0.103012264
214	0x3dd4e204	0.103946716
215	0x3dd6cde4	0.10488489
216	0x3dd8bbb8	0.105826795
217	0x3ddaab80	0.10677242
218	0x3ddc9d30	0.10772169
219	0x3dde90d8	0.108674705
220	0x3de0866c	0.10963139
221	0x3de27dec	0.11059174
222	0x3de4775c	0.111555785
223	0x3de672b4	0.11252347
224	0x3de86ff4	0.11349478
225	0x3dea6f1c	0.11446974
226	0x3dec702c	0.115448326
227	0x3dee7324	0.11643055
228	0x3df07800	0.11741638
229	0x3df27ebc	0.11840579
230	0x3df48760	0.11939883
231	0x3df691e0	0.12039542
232	0x3df89e40	0.12139559
233	0x3dfaac7c	0.1223993
234	0x3dfcbc9c	0.12340662
235	0x3dfece94	0.124417454
236	0x3e007132	0.1254318
237	0x3e017c08	0.1264497
238	0x3e0287ca	0.12747112
239	0x3e039476	0.12849602
240	0x3e04a20e	0.12952444
241	0x3e05b090	0.13055634
242	0x3e06bffc	0.13159174
243	0x3e07d050	0.13263059
244	0x3e08e18c	0.1336729
245	0x3e09f3ae	0.13471863
246	0x3e0b06b8	0.13576782
247	0x3e0c1aa8	0.13682044
248	0x3e0d2f7c	0.13787645
249	0x3e0e4538	0.13893592
250	0x3e0f5bd6	0.13999876
251	0x3e107358	0.141065
252	0x3e118bbc	0.1421346
253	0x3e12a502	0.14320758
254	0x3e13bf28	0.14428389
255	0x3e14da32	0.1453636

mel_extractor.mel_scale.fb f4 [1025, 128]
0	0x80000000	-0.0
1	0x00000000	0.0
2	0x00000000	0.0
3	0x00000000	0.0
4	0x00000000	0.0
5	0x00000000	0.0
6	0x00000000	0.0
7	0x00000000	0.0
8	0x00000000	0.0
9	0x00000000	0.0
10	0x00000000	0.0
11	0x00000000	0.0
12	0x00000000	0.0
13	0x00000000	0.0
14	0x00000000	0.0
15	0x00000000	0.0
16	0x00000000	0.0
17	0x00000000	0.0
18	0x00000000	0.0
19	0x00000000	0.0
20	0x00000000	0.0
21	0x00000000	0.0
22	0x00000000	0.0
23	0x00000000	0.0
24	0x00000000	0.0
25	0x00000000	0.0
26	0x00000000	0.0
27	0x00000000	0.0
28	0x00000000	0.0
29	0x00000000	0.0
30	0x00000000	0.0
31	0x00000000	0.0
32	0x00000000	0.0
33	0x00000000	0.0
34	0x00000000	0.0
35	0x00000000	0.0
36	0x00000000	0.0
37	0x00000000	0.0
38	0x00000000	0.0
39	0x00000000	0.0
40	0x00000000	0.0
41	0x00000000	0.0
42	0x00000000	0.0
43	0x00000000	0.0
44	0x00000000	0.0
45	0x00000000	0.0
46	0x00000000	0.0
47	0x00000000	0.0
48	0x00000000	0.0
49	0x00000000	0.0
50	0x00000000	0.0
51	0x00000000	0.0
52	0x00000000	0.0
53	0x00000000	0.0
54	0x00000000	0.0
55	0x00000000	0.0
56	0x00000000	0.0
57	0x00000000	0.0
58	0x00000000	0.0
59	0x00000000	0.0
60	0x00000000	0.0
61	0x00000000	0.0
62	0x00000000	0.0
63	0x00000000	0.0
64	0x00000000	0.0
65	0x00000000	0.0
66	0x00000000	0.0
67	0x00000000	0.0
68	0x00000000	0.0
69	0x00000000	0.0
70	0x00000000	0.0
71	0x00000000	0.0
72	0x00000000	0.0
73	0x00000000	0.0
74	0x00000000	0.0
75	0x00000000	0.0
76	0x00000000	0.0
77	0x00000000	0.0
78	0x00000000	0.0
79	0x00000000	0.0
80	0x00000000	0.0
81	0x00000000	0.0
82	0x00000000	0.0
83	0x00000000	0.0
84	0x00000000	0.0
85	0x00000000	0.0
86	0x00000000	0.0
87	0x00000000	0.0
88	0x00000000	0.0
89	0x00000000	0.0
90	0x00000000	0.0
91	0x00000000	0.0
92	0x00000000	0.0
93	0x00000000	0.0
94	0x00000000	0.0
95	0x00000000	0.0
96	0x00000000	0.0
97	0x00000000	0.0
98	0x00000000	0.0
99	0x00000000	0.0
100	0x00000000	0.0
101	0x00000000	0.0
102	0x00000000	0.0
103	0x00000000	0.0
104	0x00000000	0.0
105	0x00000000	0.0
106	0x00000000	0.0
107	0x00000000	0.0
108	0x00000000	0.0
109	0x00000000	0.0
110	0x00000000	0.0
111	0x00000000	0.0
112	0x00000000	0.0
113	0x00000000	0.0
114	0x00000000	0.0
115	0x00000000	0.0
116	0x00000000	0.0
117	0x00000000	0.0
118	0x00000000	0.0
119	0x00000000	0.0
120	0x00000000	0.0
121	0x00000000	0.0
122	0x00000000	0.0
123	0x00000000	0.0
124	0x00000000	0.0
125	0x00000000	0.0
126	0x00000000	0.0
127	0x00000000	0.0
128	0x3f10d5c7	0.565762
129	0x00000000	0.0
130	0x00000000	0.0
131	0x00000000	0.0
132	0x00000000	0.0
133	0x00000000	0.0
134	0x00000000	0.0
135	0x00000000	0.0
136	0x00000000	0.0
137	0x00000000	0.0
138	0x00000000	0.0
139	0x00000000	0.0
140	0x00000000	0.0
141	0x00000000	0.0
142	0x00000000	0.0
143	0x00000000	0.0
144	0x00000000	0.0
145	0x00000000	0.0
146	0x00000000	0.0
147	0x00000000	0.0
148	0x00000000	0.0
149	0x00000000	0.0
150	0x00000000	0.0
151	0x00000000	0.0
152	0x00000000	0.0
153	0x00000000	0.0
154	0x00000000	0.0
155	0x00000000	0.0
156	0x00000000	0.0
157	0x00000000	0.0
158	0x00000000	0.0
159	0x00000000	0.0
160	0x00000000	0.0
161	0x00000000	0.0
162	0x00000000	0.0
163	0x00000000	0.0
164	0x00000000	0.0
165	0x00000000	0.0
166	0x00000000	0.0
167	0x00000000	0.0
168	0x00000000	0.0
169	0x00000000	0.0
170	0x00000000	0.0
171	0x00000000	0.0
172	0x00000000	0.0
173	0x00000000	0.0
174	0x00000000	0.0
175	0x00000000	0.0
176	0x00000000	0.0
177	0x00000000	0.0
178	0x00000000	0.0
179	0x00000000	0.0
180	0x00000000	0.0
181	0x00000000	0.0
182	0x00000000	0.0
183	0x00000000	0.0
184	0x00000000	0.0
185	0x00000000	0.0
186	0x00000000	0.0
187	0x00000000	0.0
188	0x00000000	0.0
189	0x00000000	0.0
190	0x00000000	0.0
191	0x00000000	0.0
192	0x00000000	0.0
193	0x00000000	0.0
194	0x00000000	0.0
195	0x00000000	0.0
196	0x00000000	0.0
197	0x00000000	0.0
198	0x00000000	0.0
199	0x00000000	0.0
200	0x00000000	0.0
201	0x00000000	0.0
202	0x00000000	0.0
203	0x00000000	0.0
204	0x00000000	0.0
205	0x00000000	0.0
206	0x00000000	0.0
207	0x00000000	0.0
208	0x00000000	0.0
209	0x00000000	0.0
210	0x00000000	0.0
211	0x00000000	0.0
212	0x00000000	0.0
213	0x00000000	0.0
214	0x00000000	0.0
215	0x00000000	0.0
216	0x00000000	0.0
217	0x00000000	0.0
218	0x00000000	0.0
219	0x00000000	0.0
220	0x00000000	0.0
221	0x00000000	0.0
222	0x00000000	0.0
223	0x00000000	0.0
224	0x00000000	0.0
225	0x00000000	0.0
226	0x00000000	0.0
227	0x00000000	0.0
228	0x00000000	0.0
229	0x00000000	0.0
230	0x00000000	0.0
231	0x00000000	0.0
232	0x00000000	0.0
233	0x00000000	0.0
234	0x00000000	0.0
235	0x00000000	0.0
236	0x00000000	0.0
237	0x00000000	0.0
238	0x00000000	0.0
239	0x00000000	0.0
240	0x00000000	0.0
241	0x00000000	0.0
242	0x00000000	0.0
243	0x00000000	0.0
244	0x00000000	0.0
245	0x00000000	0.0
246	0x00000000	0.0
247	0x00000000	0.0
248	0x00000000	0.0
249	0x00000000	0.0
250	0x00000000	0.0
251	0x00000000	0.0
252	0x00000000	0.0
253	0x00000000	0.0
254	0x00000000	0.0
255	0x00000000	0.0

conv1.weight f4 [16, 1, 3, 3]
0	0x3e825f64	0.25463402
1	0x3e8d7f23	0.2763606
2	0xbd9603e9	-0.073249646
3	0x3e9ca0b8	0.3059137
4	0xbd9878f8	-0.07444948
5	0x3d906d9b	0.070521556
6	0xbe27bff7	-0.16381823
7	0x3e453260	0.19257498
8	0x3e9742f6	0.29543275
9	0xbe800d62	-0.2501021
10	0x3e92e791	0.28692296
11	0x3d8adbec	0.06780228
12	0x3e7b5de7	0.2454754
13	0x3d330eac	0.043715164
14	0x3e2a0ce0	0.16606474
15	0xbd3d65a5	-0.046239514
16	0x3e82c671	0.25542024
17	0x3d5a01c7	0.05322435
18	0xbdf176bb	-0.11790224
19	0x3ddde65b	0.108349524
20	0xbe10a578	-0.14125621
21	0xbb1b8776	-0.0023731864
22	0xbddb6d74	-0.10714236
23	0x3e68eeed	0.22747393
24	0xbe677b5b	-0.2260565
25	0xbdf8caca	-0.12148054
26	0xbdb65044	-0.08902028
27	0xbe50e098	-0.20398176
28	0x3c8562f0	0.016282529
29	0xbeb50c92	-0.35361153
30	0x3e98274e	0.29717487
31	0xbe962e8d	-0.2933239
32	0x3e7317b7	0.23739515
33	0x3d53ecaa	0.051739372
34	0xbde6f678	-0.11277479
35	0x3e42464b	0.18972127
36	0x3d2f968b	0.04286818
37	0x3e858504	0.26078045
38	0x3ceb768b	0.02874305
39	0xbde5e6ee	-0.11225687
40	0x3da80926	0.0820487
41	0xbdc6ae64	-0.09701231
42	0x3e0946ff	0.13405989
43	0x3e94b6b7	0.2904565
44	0x3e3e4bb7	0.1858357
45	0xbdfe2c18	-0.12410754
46	0x3e615e15	0.22008546
47	0x3dade4a5	0.08490876
48	0x3e4af076	0.19818291
49	0xbe34ebe7	-0.17668115
50	0xbe9e95f3	-0.30973777
51	0xbdd11b20	-0.10210252
52	0xbe7a1c70	-0.2442491
53	0x3e9296dc	0.28630722
54	0x3db2ce26	0.08730726
55	0x3e04592f	0.12924646
56	0x3dbfd89c	0.09367487
57	0xbc92f631	-0.017939659
58	0x3e7fd620	0.24984026
59	0xbe7eab86	-0.24870118
60	0x3ac39d81	0.0014924259
61	0xbe758ddc	-0.23979896
62	0x3dbe1581	0.09281445
63	0xbdd639cf	-0.10460245
64	0x3ddbd998	0.10734862
65	0xbd8eeae4	-0.069783956
66	0x3e95b051	0.2923608
67	0xbe434f2a	-0.19073167
68	0xbe4d87b1	-0.20071293
69	0xbe3a65b5	-0.1820286
70	0x3e9c5b2d	0.30538312
71	0x3ddea8ac	0.10872015
72	0x3ea56747	0.32305357
73	0xbe881393	-0.26577434
74	0xbeaf417d	-0.3422965
75	0xbe81dadc	-0.2536229
76	0xbe59c24e	-0.21265528
77	0x3e00cd68	0.12578356
78	0x3e00fd78	0.1259669
79	0x3e92155e	0.28531927
80	0xbe3a86fc	-0.18215555
81	0xbe638723	-0.2221952
82	0x3e416ee2	0.18889955
83	0xbe0df172	-0.13861635
84	0x3e53d261	0.20685722
85	0xbd8933a3	-0.06699302
86	0x3e429758	0.19003046
87	0xbe88d429	-0.26724365
88	0xbe28fa56	-0.16501746
89	0x3dcf7cdb	0.10131236
90	0x3d772aad	0.060343433
91	0xbdaf5ec6	-0.085629985
92	0x3e4e7122	0.20160344
93	0x3e5e1517	0.21687733
94	0xbe77d25e	-0.24201342
95	0xbe2ab62e	-0.16671059
96	0x3e972f28	0.29528165
97	0xbde7c5c5	-0.113170184
98	0xbdd09f99	-0.10186691
99	0xbe9c98e8	-0.30585408
100	0xbe341475	-0.17585929
101	0x3de11bda	0.109916404
102	0xbcc2e354	-0.02379004
103	0xbe61fe34	-0.22069627
104	0x3d119606	0.035543464
105	0xbe53d919	-0.20688285
106	0xbe849fe9	-0.25903252
107	0xbe1e7b6a	-0.15476766
108	0xbe822759	-0.25420645
109	0xbe4f9624	-0.20272118
110	0x3ea05155	0.3131205
111	0x3dcb97f1	0.0994109
112	0x3de3113b	0.11087271
113	0xbea877be	-0.32903856
114	0xbe3c8ca3	-0.18413024
115	0xbdd1de3b	-0.10247465
116	0x3d1efbb5	0.038814265
117	0xbe88dd27	-0.26731226
118	0xbdf0b76d	-0.11753736
119	0xbe2db660	-0.16964102
120	0x3ce12181	0.027481796
121	0xbdc7a942	-0.0974908
122	0x3be078c3	0.0068503334
123	0xbe4c7949	-0.19968142
124	0xbe5002fe	-0.20313641
125	0xbe2962be	-0.16541573
126	0xbdd625bc	-0.10456416
127	0xbe896009	-0.26831082
128	0x3e8c8777	0.274471
129	0xbd4b9ca4	-0.04970993
130	0x3e919024	0.28430283
131	0x3dc9dcea	0.09856589
132	0xbe88594b	-0.26630625
133	0x3e6b165a	0.22957745
134	0xbdcc4d61	-0.09975696
135	0xbdf45099	-0.11929435
136	0xbe887c35	-0.26657262
137	0xbea097e9	-0.31365898
138	0x3dd7b7b2	0.10533084
139	0xbd7f122c	-0.06227319
140	0x3e143252	0.1447232
141	0xbe8675c6	-0.2626173
142	0x3e84d593	0.25944194
143	0xbe6c7888	-0.23092854

conv1.bias f4 [16]
0	0xbd7a939f	-0.06117594
1	0x3d31fd0b	0.04345421
2	0x3e5dbe7d	0.21654697
3	0x3e983cc6	0.29733866
4	0x3eb18391	0.3467069
5	0xbe9553bb	-0.29165444
6	0x3da5486a	0.080704525
7	0xbe227baa	-0.15867487
8	0xbd70e75b	-0.058814388
9	0xbe6fdb7b	-0.23423569
10	0x3eb216e9	0.34783104
11	0xbe678510	-0.22609353
12	0x3e641dc3	0.22276978
13	0x3e1628e2	0.14664033
14	0x3e1429c0	0.14469051
15	0xbe40ba33	-0.1882103

conv2.weight f4 [32, 16, 3, 3]
0	0x3daf91fc	0.08572766
1	0x3cbd9cc1	0.023146035
2	0x3bb835c9	0.005621646
3	0xbd92a74c	-0.071608156
4	0x3d1dd03f	0.038528677
5	0xbc9c5b9c	-0.019086652
6	0xbd13d34a	-0.036090173
7	0x3d8168a2	0.06318785
8	0x3c757fc3	0.014984074
9	0xbd42a0b5	-0.047516543
10	0xbcee8f80	-0.02912116
11	0xbc4885ab	-0.0122389
12	0x3d3a15fc	0.045431122
13	0xbc49e95c	-0.012323704
14	0xbd5f5e95	-0.05453356
15	0xbcf6d0b4	-0.030128814
16	0xbd972962	-0.0738094
17	0x3ccffa2c	0.025387846
18	0x3d85c39c	0.0653145
19	0xbd8933ce	-0.06699334
20	0x3cfde241	0.030991675
21	0x3d47264e	0.048620515
22	0x3cedb0af	0.029014913
23	0xbc808b4c	-0.015691422
24	0x3d560342	0.0522492
25	0x3d693635	0.05693646
26	0x3d2a74dc	0.041615352
27	0xbc77c894	-0.015123505
28	0xbc4de9b3	-0.012567925
29	0x3b50cfcd	0.003186214
30	0xbc4c2186	-0.0124591645
31	0xbc8afe39	-0.016966926
32	0x3d51e805	0.05124666
33	0x3d9e0d0b	0.077173315
34	0xbc6e03de	-0.014527289
35	0xbc89a8d6	-0.01680414
36	0x3b2382e8	0.0024949852
37	0x3b9fe9c3	0.0048801615
38	0x3c607a90	0.013701096
39	0x3cbe1b61	0.023206415
40	0xbd882ce2	-0.06649186
41	0xbd148920	-0.036263585
42	0x3d8d4d4e	0.0689951
43	0x3cc13140	0.023583055
44	0xbbf97031	-0.007612251
45	0xbd032a48	-0.032022744
46	0xbcccc073	-0.02499411
47	0xbd9fd76d	-0.07804761
48	0xbccfaf9a	-0.025352288
49	0x3c8faff5	0.017539958
50	0x3d638c79	0.055553887
51	0x3d34e1b8	0.044160575
52	0xbdaa7b79	-0.08324332
53	0xbce63053	-0.028099215
54	0xbba05fbc	-0.004894225
55	0x3db6748f	0.089089505
56	0x3c4ecee1	0.012622566
57	0xbca20b2a	-0.019780714
58	0x3d2b0592	0.04175336
59	0xbd11bd01	-0.03558064
60	0xbd4e1072	-0.050308652
61	0x3d91a824	0.071121484
62	0xbd2e762a	-0.04259316
63	0xbca4aa2f	-0.020100681
64	0xbdb922a9	-0.09039814
65	0x3d4615fb	0.048360806
66	0x3d56eb2f	0.052470382
67	0x3c9ae318	0.018907115
68	0xbd85f929	-0.06541664
69	0xbdbe3d60	-0.0928905
70	0xbdb86997	-0.09004515
71	0x3d6a374d	0.057181645
72	0x3d70b0c6	0.058762334
73	0x3d9d5cf1	0.07683743
74	0x3d822d5c	0.06356308
75	0x3ceb98e8	0.028759435
76	0x3b0bd08b	0.0021334018
77	0xbd8c02ec	-0.06836495
78	0xbd9698be	-0.07353352
79	0xbd94c642	-0.07264377
80	0x3cd48520	0.025942385
81	0xbcb27c65	-0.021787832
82	0xbca15ad3	-0.019696629
83	0xbd6c3c7e	-0.057674877
84	0x39ef7128	0.0004566994
85	0xbd8c9a68	-0.06865388
86	0xbd8144a0	-0.06311917
87	0x3d10f367	0.035388377
88	0xbd0bedc2	-0.03416229
89	0x3d3f9ef4	0.04678245
90	0xbc8930bf	-0.016746877
91	0xbd5504f0	-0.052006662
92	0x3b08b95a	0.0020862431
93	0xbd1e6026	-0.038665913
94	0xbc8aa5ad	-0.016924703
95	0xbd952918	-0.07283229
96	0x3d5447df	0.051826354
97	0xbd578f11	-0.052626673
98	0x3cecc021	0.028900208
99	0x3d130407	0.035892513
100	0x3d82aee2	0.063810125
101	0xbd6caf7f	-0.057784554
102	0x3d5d814a	0.054078378
103	0xbd268b40	-0.040660143
104	0x3cc6beae	0.024260845
105	0x3d9875c1	0.07444335
106	0xbc8c910d	-0.01715901
107	0xbb552467	-0.0032522918
108	0xbc9e1758	-0.01929824
109	0xbd67a707	-0.056555774
110	0x3d10e4ea	0.03537456
111	0xbda4482f	-0.080215804
112	0x3d827fa9	0.063720055
113	0x3d5eb200	0.054368973
114	0x3db0bf51	0.08630241
115	0xbc26fe46	-0.010192459
116	0xbd9ade7d	-0.075619675
117	0x3c8f8dfb	0.017523756
118	0x3d5d2f5d	0.054000247
119	0xbd93d662	-0.07218625
120	0xbc6c851e	-0.0144360345
121	0xbd223571	-0.039601747
122	0x3a200cae	0.0006105405
123	0xbd0a229a	-0.033724405
124	0xbcbb6ca2	-0.022878949
125	0xbcae3773	-0.021266675
126	0xbda65c21	-0.08123041
127	0x3da9141d	0.082557894
128	0x3d7d3070	0.06181377
129	0xbc4574cd	-0.012051773
130	0xbc30c4e9	-0.010789135
131	0xbd2c1273	-0.042009782
132	0xbdabae6c	-0.08382878
133	0xbdbac9b6	-0.091205046
134	0x3cd0d363	0.025491422
135	0xbd759bdd	-0.059963096
136	0xbd78e5ad	-0.06076591
137	0x3b33e9f1	0.0027452672
138	0xbd548ebe	-0.051893942
139	0xbd1287f9	-0.035774205
140	0x3b2a6f4b	0.0026006277
141	0xbd26f1d8	-0.040757984
142	0xbd1dbff4	-0.03851314
143	0xbd2ef814	-0.042717054
144	0xbd9658dd	-0.07341168
145	0x3d95a4eb	0.07306846
146	0xbc201ec9	-0.009772965
147	0x3cab43de	0.020906385
148	0xbced06fe	-0.028933998
149	0x3cba90fa	0.022774208
150	0x3da8e673	0.0824708
151	0x3d149480	0.036274433
152	0xbd85d51b	-0.06534787
153	0x3ce9d21d	0.028542573
154	0x3dafc311	0.08582128
155	0x3d276967	0.040872004
156	0x3d5b1ac7	0.053492334
157	0x3daa1671	0.083050616
158	0xba5b7a6a	-0.0008372428
159	0x3c9069e9	0.017628627
160	0xbd7841ef	-0.060609754
161	0xbc75b220	-0.014996082
162	0x3d645399	0.055743787
163	0x3cf6416a	0.030060489
164	0xbd86e94c	-0.065874666
165	0xbda32dd8	-0.079677284
166	0xbd8ae97c	-0.06782815
167	0xbdc8e22e	-0.09808765
168	0xbda7babe	-0.08189915
169	0xbcbb6a30	-0.022877783
170	0x3d2d8c6e	0.042370252
171	0x3c534e09	0.012897023
172	0xbd99174a	-0.07475145
173	0xbd8c84b1	-0.068612464
174	0x3d2e76b0	0.042593658
175	0xbd971b3a	-0.0737824
176	0xbc8db30a	-0.017297287
177	0x3d317d2f	0.043332275
178	0xbd27967b	-0.040914994
179	0xbc1b63fd	-0.009484288
180	0xbc5283ae	-0.012848778
181	0xbc889a86	-0.016675245
182	0xbcbc52f1	-0.022988768
183	0xbd9cafee	-0.076507434
184	0xbd8cd52e	-0.06876598
185	0xbd099732	-0.033591457
186	0x3da4f4c5	0.080544986
187	0xbd364e14	-0.044508055
188	0xbd5edcb4	-0.054409698
189	0x3c8a3542	0.016871098
190	0x3d77a0cf	0.060456093
191	0x3db22afa	0.086996034
192	0x3d9fbc35	0.077995695
193	0x3dabe328	0.08392936
194	0xbd410d88	-0.047132045
195	0x3cc007b5	0.023441175
196	0x3da5eda7	0.08101969
197	0x3c34b97b	0.01103055
198	0xbd607244	-0.054796472
199	0x3dacddec	0.08440766
200	0xbbf88810	-0.0075845793
201	0xbd45b838	-0.048271388
202	0xbd966689	-0.07343776
203	0x3cad3c9d	0.021147067
204	0x3d24e9c3	0.040261995
205	0x3c80c73b	0.01572
206	0x3c9b97b7	0.018993242
207	0xbd98091f	-0.07423615
208	0xbdaa4f2e	-0.083158836
209	0x3cc7a6e3	0.02437157
210	0x3d935296	0.071934864
211	0x3d2aa2f1	0.0416593
212	0xbd2ca325	-0.042147774
213	0xbc142a9e	-0.009043364
214	0xbd886e28	-0.06661636
215	0xbd2dcce1	-0.042431716
216	0x3b085382	0.0020801728
217	0x3d0e527f	0.034746643
218	0x3dc34d77	0.095362596
219	0xbda91a56	-0.08256976
220	0x3d4d8ff5	0.050186116
221	0xbd2571f9	-0.040391896
222	0x3d1744b7	0.036930766
223	0x3d882387	0.06647401
224	0x3b9f2c8a	0.0048576044
225	0x3d8f7071	0.07003868
226	0xbd2b2444	-0.041782632
227	0xbcfba2cb	-0.030717274
228	0x3d16ace1	0.036785964
229	0xbbf64250	-0.0075152293
230	0xbc9b9b72	-0.01899502
231	0xbd32bd5f	-0.04363763
232	0x3d86bfe7	0.06579571
233	0x3d411999	0.047143552
234	0x3c9a76d9	0.0188555
235	0xbd545086	-0.051834606
236	0xbd5122f9	-0.051058743
237	0x3c3b2c9c	0.01142421
238	0x3ca7e013	0.02049259
239	0xbd0b4e30	-0.034010112
240	0xbc6a4144	-0.014297787
241	0x3d5b7934	0.053582385
242	0x3bd0b273	0.006368929
243	0x3c86ceb7	0.016455991
244	0xbc76e4e3	-0.015069219
245	0xbdad9f02	-0.08477594
246	0xbd9d740f	-0.07688152
247	0xbd0673d0	-0.03282529
248	0xbd4f707e	-0.05064439
249	0x3cec4311	0.028840574
250	0xbcad74ba	-0.021173824
251	0xbd0a8269	-0.033815775
252	0x3d9d8f4c	0.07693347
253	0x3d12fd9f	0.035886403
254	0x3d368a75	0.044565637
255	0xbd396bd3	-0.045268845

conv2.bias f4 [32]
0	0x3d13aadd	0.03605162
1	0x3cfc85fe	0.030825611
2	0xbdc6e3cc	-0.097114176
3	0xbd99fb64	-0.07518652
4	0xbdb3a048	-0.087708056
5	0x3da5f880	0.08104038
6	0x3dd5b830	0.104355216
7	0xbda51683	-0.080609344
8	0x3ccc3b5a	0.024930645
9	0x3d67e649	0.0566161
10	0xbd20b716	-0.039237104
11	0x3c9f5ec2	0.019454364
12	0x3db1434a	0.086554125
13	0x3dff8578	0.12476629
14	0x3da40b2e	0.08009945
15	0x3ca586d9	0.020205902
16	0xbb98f46e	-0.00466781
17	0xbcda6f07	-0.02666427
18	0x3bb54c9f	0.0055328156
19	0x3bdf5750	0.0068158284
20	0x3dce884d	0.10084591
21	0xbd7b76d8	-0.061392635
22	0xbc003cdc	-0.00782701
23	0xbb049e54	-0.0020235972
24	0x3d4fd9ce	0.050744824
25	0x3df4f547	0.119608454
26	0x3d3a4555	0.045476276
27	0xbcb8c897	-0.022556586
28	0x3c62557a	0.0138143245
29	0xbd8bdf1e	-0.068296656
30	0xbda532b4	-0.080663115
31	0x3cad48e1	0.021152915

conv3.weight f4 [64, 32, 3, 3]
0	0xbd2eb21c	-0.042650327
1	0x3ce617a6	0.028087448
2	0xbc677e70	-0.014129266
3	0x3cbd1ca8	0.023084953
4	0x3d19dc89	0.037563834
5	0x3c3dbb61	0.011580319
6	0x3c04cde3	0.008105728
7	0x3d30765d	0.04308163
8	0xbcc4a4bb	-0.02400433
9	0x3d3cbbda	0.046077587
10	0xbd61ae88	-0.055098087
11	0x3d5373e6	0.0516242
12	0xbc6873b4	-0.014187742
13	0xbbf2a648	-0.007405076
14	0x3cd118ec	0.025524579
15	0x3c2ca5f6	0.010537615
16	0x3d36ca9b	0.044626813
17	0xbd10760c	-0.03526883
18	0xbd1d2965	-0.038369555
19	0x3d401b83	0.046901237
20	0xbd0f9727	-0.03505626
21	0x3d1c1001	0.0381012
22	0x3d51f7da	0.05126176
23	0x3d198d58	0.03748831
24	0xbce83b10	-0.028348476
25	0xbbe77e26	-0.0070645986
26	0xbd7c64ab	-0.061619442
27	0xbd135df6	-0.03597828
28	0xba4941bc	-0.00076773367
29	0xbcdf7f32	-0.027282331
30	0x3d0608f1	0.03272337
31	0x3ccab3c1	0.024743916
32	0xbcb17157	-0.02166049
33	0xbbc20b4e	-0.005921758
34	0x3cfe23d7	0.03102295
35	0xbca88f57	-0.020576162
36	0x3d319d06	0.04336264
37	0x3d52e827	0.05149093
38	0xbcd286fb	-0.02569913
39	0xbd851c57	-0.06499546
40	0x3d490296	0.04907473
41	0xbd2226f3	-0.039587926
42	0x3d5ffa60	0.054682136
43	0xbd373287	-0.04472592
44	0x3adaa0ab	0.0016679963
45	0x3c2ab433	0.010418939
46	0xbc905577	-0.017618878
47	0x3d344cf8	0.044018716
48	0xbd688643	-0.056768667
49	0xbcfa527c	-0.03055691
50	0xbc5d8d30	-0.013522431
51	0x3d1facb1	0.03898305
52	0x3c91293c	0.017719857
53	0x3cfc19d6	0.030774038
54	0x3c82b7d2	0.015956793
55	0x3d555de0	0.05209148
56	0xbc801bc2	-0.015638236
57	0xbcdec530	-0.027193636
58	0xbc421c2b	-0.011847536
59	0x3c95a022	0.018264834
60	0xbcbe54ab	-0.023233732
61	0x3c567530	0.013089463
62	0x3c3104da	0.010804379
63	0x3c5e0329	0.013550558
64	0x3d2da852	0.04239685
65	0x3b49008a	0.0030670487
66	0x3d19f81b	0.037590127
67	0xbcb19d42	-0.021681432
68	0xbd76442b	-0.060123604
69	0x3d00fa5a	0.031488754
70	0x3c893f71	0.016753884
71	0x3d287e97	0.04113635
72	0x3c2525c6	0.010079807
73	0x3c09432f	0.008377834
74	0xbd412ee6	-0.047163866
75	0xbd7e926f	-0.06215137
76	0x3c9feebd	0.019523019
77	0x3d3aa75e	0.04556977
78	0xbc8ce55b	-0.017199209
79	0xbcc1a984	-0.023640402
80	0x3cc1b321	0.023644986
81	0xbd1daaf3	-0.038493108
82	0x3c906c95	0.017629901
83	0xbd5b6532	-0.053563304
84	0xbd77507f	-0.0603795
85	0xbd24973b	-0.040183287
86	0xbc83ba78	-0.016080126
87	0x3c3fd5b2	0.011708664
88	0x3caab0a3	0.02083618
89	0xbd3b5917	-0.04573926
90	0xbcb92831	-0.022602173
91	0x3cb5f769	0.0222127
92	0xbc8c6ed5	-0.017142693
93	0xbc05ccf9	-0.008166545
94	0x3d079294	0.033098772
95	0xbc92bd8d	-0.01791265
96	0x3cbac571	0.022799226
97	0x3d23eece	0.040022664
98	0x3cb3fed7	0.021972103
99	0xbc5cc227	-0.013474024
100	0xbd2de25b	-0.042452198
101	0xbd26381d	-0.040580858
102	0xbc0ca63b	-0.008584554
103	0x3c4ba528	0.012429513
104	0x3cdf4a7b	0.027257195
105	0x3b886b5c	0.004163189
106	0x3d2333af	0.03984421
107	0xbd01509c	-0.031571016
108	0x3bbfd886	0.005854669
109	0xbd11833f	-0.035525557
110	0x3c619432	0.013768243
111	0x3d4a6b62	0.049418814
112	0x3c67ff7b	0.014160032
113	0xb9988580	-0.00029091164
114	0xbca12b04	-0.019673832
115	0xbd6557c8	-0.055991918
116	0xbd3f91d6	-0.04676994
117	0xbd470100	-0.048584938
118	0x3d0f86b9	0.03504059
119	0xbd008b84	-0.031383052
120	0xbbf4d504	-0.0074716825
121	0xbd75d813	-0.060020518
122	0xbcc1a2d5	-0.023637215
123	0x3d4a308f	0.049362715
124	0x3afca161	0.0019274169
125	0xbca25a26	-0.019818377
126	0x3d02e432	0.031955905
127	0x3d2266f0	0.03964895
128	0x3d3a03a9	0.045413647
129	0xbd1ba23f	-0.037996527
130	0x3a6ddb84	0.0009073543
131	0xbd55931f	-0.05214226
132	0xbd243dd5	-0.04009803
133	0x3d30771b	0.043082338
134	0xbd4efd36	-0.05053445
135	0xbd237732	-0.039908595
136	0x3cd6c15a	0.026215244
137	0x3d6bd80f	0.057579096
138	0xbd868712	-0.06568731
139	0xbd2c85ed	-0.04211991
140	0xbcccd330	-0.025003046
141	0x3d1898b8	0.03725502
142	0x3cdf3c13	0.027250325
143	0x3d138682	0.03601695
144	0x3cf0473f	0.029330848
145	0x3c30a0c0	0.010780513
146	0x3d3f76c2	0.046744116
147	0xba138cf6	-0.000562861
148	0x3cc020f2	0.02345321
149	0xbc39f49f	-0.011349826
150	0x3cab4877	0.020908577
151	0x3d071d99	0.03298721
152	0xbc151ad9	-0.009100639
153	0x3d326877	0.043556657
154	0xbcb019e8	-0.021496728
155	0x3c80f50e	0.015741851
156	0x3d39aa43	0.04532839
157	0x3cf00c9d	0.02930289
158	0xbcade9b9	-0.021229612
159	0xbd0f2fef	-0.034957822
160	0x398c300c	0.0002673868
161	0xbabd9a59	-0.0014465555
162	0xbb9ffd2d	-0.004882476
163	0x3d1cdb9a	0.038295366
164	0x3cafdfb1	0.021468969
165	0xbd15fc44	-0.036617532
166	0xbd4e549c	-0.05037366
167	0x3d5c4cb3	0.053784084
168	0xbc60fce2	-0.013732167
169	0xbd01a389	-0.0316501
170	0xbd4fa1c5	-0.050691385
171	0x3d3aa6ae	0.045569114
172	0x3d0dfbc7	0.03466394
173	0xbca5c14d	-0.020233775
174	0xbd73391c	-0.059380636
175	0x3d472910	0.048623145
176	0x3cdfe7d4	0.027332224
177	0xbc8e87f3	-0.01739881
178	0xbd669c91	-0.056301657
179	0x3d00cc11	0.031444613
180	0xbd48a504	-0.048985496
181	0x3cef2344	0.02919162
182	0xbd7cee0b	-0.061750453
183	0xbd7664d9	-0.06015477
184	0xbd7d3762	-0.061820395
185	0x3d438aa5	0.047739644
186	0x3d5c207d	0.05374192
187	0xbd6c4d54	-0.057690933
188	0x3d1ae4e0	0.03781593
189	0xbd3480b0	-0.04406804
190	0xbd587fcb	-0.052856248
191	0x3d323205	0.043504734
192	0x3ccffafa	0.02538823
193	0x3d04213f	0.03225827
194	0x3c729fcc	0.014808606
195	0x3d463ae1	0.048395995
196	0xbd7227dd	-0.059120048
197	0x3ce5f58b	0.028071186
198	0xbcddbf92	-0.027068887
199	0xbad00b00	-0.0015872419
200	0x3d12bab0	0.03582257
201	0xbd46eafc	-0.048563942
202	0x3ca78d0c	0.020452999
203	0xbc5ea506	-0.013589149
204	0x3d02991a	0.03188429
205	0xbc0a4356	-0.008438906
206	0x3ce49e58	0.027907535
207	0x3d6b8419	0.057499025
208	0xbce0d325	-0.027444432
209	0xbd8445ed	-0.0645865
210	0x3d7a7f37	0.061156478
211	0xbd1fe38b	-0.03903536
212	0x3bd608a1	0.0065317904
213	0x3d267bfe	0.040645592
214	0xbc7f0d82	-0.015567185
215	0x3d18f0e9	0.037339125
216	0x3d0a350c	0.033741996
217	0xbc928f34	-0.01789055
218	0x3c3d2545	0.01154453
219	0x3b5025ea	0.003176088
220	0x3d492bd5	0.049114067
221	0x3d13bc09	0.036067996
222	0xbd3b6c05	-0.045757312
223	0xbbd40d91	-0.006471344
224	0x3ccdf8ab	0.025142988
225	0x3d2db68f	0.04241043
226	0x3c8cd4d9	0.017191337
227	0x3cb2eca9	0.021841364
228	0xbc4c2054	-0.0124588795
229	0xbb99b69f	-0.0046909596
230	0xbd41afae	-0.04728668
231	0x3d4159fd	0.04720496
232	0x3d16ec64	0.036846533
233	0xbd269f4b	-0.040679257
234	0xbd78e08d	-0.060761023
235	0x3d2f9999	0.04287109
236	0xbd70359a	-0.05864487
237	0x3cf4d831	0.029888244
238	0xbd80ec45	-0.06295065
239	0xbd160899	-0.036629293
240	0xbd03e4e4	-0.03220071
241	0x3d402d3c	0.04691814
242	0xbc927b57	-0.017881079
243	0x3d236029	0.039886627
244	0x3c8e9abc	0.017407767
245	0x3d4aa6d8	0.04947552
246	0x3d01c049	0.031677518
247	0x3d1bf37c	0.038074
248	0x3d40071e	0.046881787
249	0xbcb42e10	-0.02199462
250	0xbcde17c2	-0.027110938
251	0x3c81f901	0.015865805
252	0x3d4265b1	0.04746026
253	0xbcb6033b	-0.022218337
254	0xbd3a2361	-0.045443896
255	0xbd373287	-0.04472592

conv3.bias f4 [64]
0	0xbce30bce	-0.02771559
1	0x3d29ea4e	0.041483216
2	0x3d483ef8	0.048888177
3	0x3dcc1abc	0.09966037
4	0x3d47d644	0.048788324
5	0xbd23c434	-0.039982036
6	0x3d6c4eb5	0.05769225
7	0xbd404e0f	-0.046949442
8	0xbc096463	-0.00838575
9	0x3d7564de	0.059910648
10	0xbd30c1e4	-0.04315366
11	0x3d31e99f	0.04343569
12	0x3d7cd67d	0.06172799
13	0x3d3434b2	0.043995567
14	0x3d9242e2	0.07141663
15	0xbc72fa00	-0.014830112
16	0x3d22ed7b	0.03977726
17	0x3d7f3d06	0.062314056
18	0xbcce6e08	-0.025198951
19	0xbcd019b3	-0.02540288
20	0x3d4033ff	0.046924587
21	0x3d301d35	0.042996604
22	0x3c608292	0.013703005
23	0x3d37af26	0.04484477
24	0x3d97e8d3	0.074174546
25	0x3a50e7a0	0.0007969085
26	0xbd5b5b69	-0.053553972
27	0x3d05f275	0.03270193
28	0x3d805256	0.06265704
29	0xbd0862dc	-0.033297405
30	0xbca7ae21	-0.020468773
31	0x3daacb15	0.08339516
32	0xbce3adce	-0.027792837
33	0xbb8abf0a	-0.0042341994
34	0x3bf85b99	0.0075792787
35	0x3d6c98ca	0.0577629
36	0x3d8f6559	0.070017524
37	0x3d3ee245	0.046602506
38	0x3d32b1ae	0.04362648
39	0xbd0c52a7	-0.03425851
40	0xbc77fc06	-0.015135771
41	0x3d87962e	0.066204414
42	0x3d5e3fa6	0.05425992
43	0x3d2d4499	0.042301748
44	0x3c709d61	0.01468596
45	0xbcd9fa4b	-0.026608607
46	0xb73501e3	-1.078888e-05
47	0xbb0aa986	-0.0021158173
48	0x3a89a7ca	0.0010502276
49	0x3c4873b9	0.012234622
50	0xbc0bc5dd	-0.008531061
51	0xbd5ef46b	-0.054432314
52	0xbb5fc1bb	-0.0034142572
53	0x3d43aa56	0.047769867
54	0xbac3dd12	-0.0014943203
55	0x3dc0ffb5	0.09423772
56	0xbd418f31	-0.0472557
57	0xbbc5793f	-0.0060264166
58	0x3d64e912	0.055886336
59	0xbd7a5105	-0.061112422
60	0xbc9d5ecb	-0.01921024
61	0x3d8aba01	0.06773759
62	0xbb6ea661	-0.0036415088
63	0x3d336db8	0.043805808

conv4.weight f4 [128, 64, 3, 3]
0	0xbd0024f1	-0.03128523
1	0xbcbf09d1	-0.02332011
2	0x3b4684d2	0.003029157
3	0xbb46ae49	-0.0030316284
4	0x3cf282b6	0.029603343
5	0x3b82eaf7	0.003995295
6	0xbab4cedd	-0.001379456
7	0xbcf33444	-0.029688008
8	0x3ce61741	0.02808726
9	0xbbe596b3	-0.00700649
10	0x3c93b8d0	0.018032461
11	0xbd22528b	-0.0396295
12	0x3c9e00d7	0.01928751
13	0x3cd945db	0.026522567
14	0x3cb27065	0.02178211
15	0x3d05fce0	0.032711864
16	0xbce2b933	-0.0276762
17	0xbd147c29	-0.03625122
18	0x3c0c486b	0.008562188
19	0x3c16220f	0.009163394
20	0xbd09f1b1	-0.03367776
21	0xbc8cd647	-0.01719202
22	0xbbc277b4	-0.00593468
23	0xba840ac8	-0.0010074014
24	0x3c34dca7	0.011038936
25	0x3cb372fc	0.021905415
26	0x3c4844c6	0.012223428
27	0xbcc4ae30	-0.02400884
28	0xbd07a990	-0.03312069
29	0x3cf07a61	0.02935523
30	0x3ae8fad3	0.0017774947
31	0xbcc89dfa	-0.024489392
32	0xbcebaaac	-0.028767906
33	0xbd121b72	-0.035670705
34	0x3d0a0795	0.033698637
35	0xbcc6a54a	-0.024248738
36	0xbd4623a3	-0.04837383
37	0xbd1ebc3a	-0.038753726
38	0xbccea56e	-0.025225367
39	0xbc197c8d	-0.009368074
40	0xbd157743	-0.03649069
41	0x3c47acf8	0.012187235
42	0xbc626ba6	-0.013819611
43	0xbcd3fcb6	-0.025877338
44	0xbd04e8b9	-0.032448504
45	0xbc69bdaf	-0.0142664155
46	0x3d126906	0.03574469
47	0x3b680ad0	0.0035406835
48	0x3c38f65a	0.011289204
49	0xbd3d92b1	-0.046282474
50	0x3cd42295	0.025895396
51	0x3c32aff7	0.010906211
52	0xbc58bef1	-0.013229118
53	0xbba918a4	-0.005160408
54	0xbcce63dd	-0.025194103
55	0xbd1f7abb	-0.038935404
56	0xbce5bdf2	-0.028044675
57	0x3c3fd8fd	0.011709449
58	0x3ce20c5c	0.027593784
59	0xbd080a68	-0.03321305
60	0x3c645cf7	0.01393818
61	0xbcddef5c	-0.027091675
62	0x3cce2785	0.025165329
63	0x39606247	0.00021398916
64	0xbd48dec9	-0.04904059
65	0xbd222857	-0.039589252
66	0x3b1014f4	0.0021985145
67	0x3c7f912d	0.015598577
68	0x3bc08eed	0.005876413
69	0x3b476e15	0.0030430604
70	0xbc735762	-0.014852377
71	0xbcca414c	-0.02468934
72	0x3c1cf1ce	0.009579135
73	0xbd1243b0	-0.035709083
74	0x3c86e4b1	0.01646647
75	0xbcb4b6fe	-0.022059914
76	0xbd3be4ec	-0.045872614
77	0xba4dd5b4	-0.00078519736
78	0x3d10a4a6	0.03531327
79	0xbd1e51e9	-0.038652334
80	0xbd120fdd	-0.03565966
81	0xbc51ecd9	-0.012812817
82	0xbcc42832	-0.023944948
83	0x3cdbec68	0.026846126
84	0x3a448524	0.0007496646
85	0xbc9b9bfe	-0.018995281
86	0xbd0cce0b	-0.034376185
87	0xbd179b8a	-0.037013568
88	0x3bf5ce60	0.0075014085
89	0xbc14d049	-0.009082862
90	0xbaed05e4	-0.0018083421
91	0x3a83f9d8	0.0010068966
92	0x3cbebc20	0.023283064
93	0xbbb2d6b7	-0.005457725
94	0x3c83ad58	0.016073868
95	0xbd350f33	-0.04420395
96	0x3d119808	0.03554538
97	0xbd1864c8	-0.037205487
98	0xbc581065	-0.0131875025
99	0xbd351dd3	-0.044217896
100	0x3c823d75	0.015898446
101	0xbc3a0245	-0.01135308
102	0xbd31772e	-0.04332655
103	0xbcf11bab	-0.029432138
104	0x3c94007d	0.01806664
105	0x3c9e4638	0.019320592
106	0x3cbae117	0.02281241
107	0xbd0a3c05	-0.033748645
108	0xbc8f783a	-0.017513383
109	0x3a37896c	0.00070013735
110	0xbbf5f758	-0.0075062923
111	0xbc7ce7a9	-0.015436091
112	0x3d136fcf	0.0359953
113	0xbcdc4218	-0.026886985
114	0x3d123f00	0.035704613
115	0x3c97c27e	0.018525358
116	0xbd23a9d6	-0.03995689
117	0xbd0e7a84	-0.03478481
118	0xbd1039ee	-0.035211496
119	0x3cbb5bf1	0.02287099
120	0xbd2d617b	-0.042329293
121	0xbb211726	-0.0024580448
122	0xbc2c5629	-0.010518589
123	0x3bba10fc	0.005678294
124	0xbcea3aba	-0.028592456
125	0xbcffa33b	-0.031205764
126	0xbd3437dc	-0.043998584
127	0xbc3c5d54	-0.0114968605
128	0xbbb73833	-0.0055914163
129	0x3c4b3025	0.012401615
130	0x3bfdb46a	0.0077424543
131	0xbcabc6b0	-0.020968765
132	0x3c73786b	0.014860253
133	0x3c8975f0	0.01677987
134	0xbd21b9c4	-0.0394838
135	0x3cf128ed	0.02943846
136	0xbc3b9898	-0.011449955
137	0xbc04ddff	-0.008109569
138	0xbd37f1b2	-0.044908233
139	0x3c801060	0.015632808
140	0x3c8d0503	0.017214304
141	0x3b3f4982	0.0029188101
142	0x3c2664e1	0.010155887
143	0xbd2cb0bc	-0.042160735
144	0x3d140022	0.03613294
145	0x3cacd397	0.021096988
146	0xbc94e9d4	-0.018177904
147	0x3c998d11	0.018744024
148	0xbca638f5	-0.020290831
149	0xbc6c06b2	-0.014405893
150	0xbbdee676	-0.0068023754
151	0x3c9358cc	0.017986678
152	0x3c9b2011	0.018936189
153	0xbca4623b	-0.020066371
154	0xbd2d29bc	-0.04227613
155	0xbc004a82	-0.007830264
156	0xbca45964	-0.020062156
157	0xbbe2843b	-0.0069127358
158	0x3cb73ff6	0.022369366
159	0x3cb446e0	0.022006452
160	0xbb2af513	-0.0026086017
161	0x3c734253	0.014847356
162	0x3c12e1ed	0.008964998
163	0xbcf0a719	-0.029376553
164	0x3c9290e3	0.017891353
165	0xbcac8756	-0.021060627
166	0xbbf3776b	-0.007430007
167	0xbc17d4c5	-0.009267037
168	0xbbb39263	-0.005480097
169	0x3d131034	0.035904124
170	0x3b00f0c9	0.001967477
171	0x3b9c24e1	0.0047651385
172	0xbd28f6c9	-0.041250978
173	0xbcb5736e	-0.022149768
174	0xbc8fcf6f	-0.017554967
175	0xbccc6363	-0.024949735
176	0x3b140813	0.002258782
177	0xbd4628a3	-0.048378598
178	0x3d0efc7a	0.03490875
179	0xbc96db18	-0.018415019
180	0x3c8894d4	0.01667253
181	0x3cb37021	0.021904053
182	0x3cca589d	0.024700457
183	0xbc3fa104	-0.011696104
184	0xbbd9d424	-0.0066476036
185	0x3c7e673b	0.015527542
186	0xbd12c344	-0.03583075
187	0xbc167343	-0.009182754
188	0x3c1ef07b	0.00970089
189	0xbc0aa55f	-0.008462279
190	0xbd12839d	-0.035770047
191	0x3c648950	0.0139487535
192	0xbc1d185f	-0.00958833
193	0x3ca1ea0b	0.01976492
194	0xbcdbdad5	-0.026837746
195	0xbb82dd2b	-0.0039936504
196	0xbc283cea	-0.010268429
197	0xbb851e6e	-0.0040624654
198	0x3d03c723	0.032172333
199	0xbbb797d2	-0.005602815
200	0x3b91bd56	0.0044476194
201	0xbd3986db	-0.045294624
202	0xbcce2957	-0.025166197
203	0xbc3601db	-0.011108841
204	0xbb8c631f	-0.004284277
205	0xbc660def	-0.014041408
206	0x3d0c5b7c	0.034266934
207	0x3cd919f6	0.026501637
208	0x3b210836	0.0024571544
209	0xbd16d915	-0.03682812
210	0xbd04cd41	-0.032422308
211	0xbcd3b596	-0.025843423
212	0xbcf2f79f	-0.02965909
213	0xba7d895b	-0.00096716516
214	0xbd42604d	-0.04745512
215	0xbd1abe6f	-0.037779268
216	0xbc6b8b78	-0.014376514
217	0xbd1abdc8	-0.037778646
218	0x3c821a0a	0.015881557
219	0x3c846071	0.016159268
220	0x3d00c13d	0.031434286
221	0x3c93044d	0.017946387
222	0xbc59d598	-0.013295554
223	0xbbf7e252	-0.0075648213
224	0x3c8df4a0	0.01732856
225	0xbd380227	-0.044923928
226	0xbb4ae546	-0.0030959412
227	0xbcfcceab	-0.030860266
228	0x3c5f6b08	0.013636358
229	0xbc949ef5	-0.018142203
230	0x3c9a12c6	0.01880778
231	0x3c1daa2e	0.0096230935
232	0xbb6e3f7d	-0.003635376
233	0x3cc50dcd	0.024054432
234	0xbca7ff63	-0.02050752
235	0xbbccb4bd	-0.0062471316
236	0x3cb83ac4	0.02248896
237	0x3cf3708a	0.029716749
238	0xbc8523c4	-0.016252406
239	0x3b969a42	0.0045960257
240	0x3be04a8f	0.0068448256
241	0x3c0da4b1	0.0086452225
242	0x3c379a9f	0.011206298
243	0x3bdc7b09	0.006728534
244	0xbd13971f	-0.036032792
245	0xbc7d9e36	-0.015479615
246	0xbccfdb19	-0.025373029
247	0x3cea68ce	0.028614428
248	0xbc8f20e2	-0.017471734
249	0x3cc7a74e	0.02437177
250	0x3bf1580f	0.0073652337
251	0x3c23887a	0.009981269
252	0x3b62f652	0.0034631682
253	0xbc32acab	-0.010905425
254	0xbca419c1	-0.020031812
255	0x3d18f454	0.037342384

conv4.bias f4 [128]
0	0xbc9af03f	-0.018913386
1	0xbcbf38ff	-0.023342608
2	0x3d04ce30	0.0324232
3	0x3d5480fe	0.05188083
4	0xbca8eb5a	-0.020620037
5	0xbc0adb6a	-0.008475164
6	0x3d3f98c2	0.04677654
7	0x3d85a29c	0.06525156
8	0xbac7551b	-0.0015207859
9	0xbb9ac33c	-0.004722981
10	0xbc1c1869	-0.009527304
11	0x3d10adb0	0.03532189
12	0xbb117882	-0.0022197072
13	0x3c2bc069	0.010482886
14	0x3c701deb	0.0146555705
15	0xbcb852f4	-0.022500493
16	0x3a054751	0.00050841743
17	0x3c339750	0.010961369
18	0xbd1c5e1c	-0.038175687
19	0xbc33dc8c	-0.010977875
20	0x3ce5190d	0.027966047
21	0x3cafd166	0.021462154
22	0x3cc02eda	0.02345984
23	0x3c08f9bd	0.0083603235
24	0xbd1b31b2	-0.03788919
25	0xbbe18faf	-0.0068835835
26	0x3c3ef276	0.011654487
27	0x3d388759	0.045050953
28	0xbbeed452	-0.007288494
29	0xbd4749c4	-0.048654333
30	0x3a24c45c	0.00062853633
31	0x3d29166b	0.041281145
32	0xbcc27b77	-0.023740513
33	0x3ceb1503	0.028696543
34	0x3c8855de	0.016642507
35	0x3c9312db	0.017953327
36	0x3d8d855a	0.069102004
37	0xbcd563c5	-0.02604855
38	0x3d85f6a0	0.065411806
39	0xbb178301	-0.0023118856
40	0x3d5549d3	0.052072357
41	0x3d5f4e56	0.054518066
42	0x3bb377f5	0.0054769465
43	0xbd402860	-0.046913505
44	0xbd2e0a61	-0.042490367
45	0xbd5a1c3d	-0.053249586
46	0x3cfe6a0f	0.031056432
47	0xbd0ec752	-0.034858055
48	0xbc46dbcd	-0.0121373655
49	0xbbff316a	-0.007787873
50	0xbc088f07	-0.008334882
51	0xbbde0a51	-0.006776132
52	0x3c064ebf	0.0081974855
53	0x3cf658d0	0.030071646
54	0x3d4a29c2	0.04935623
55	0xbca86018	-0.020553634
56	0x3c8fd8de	0.017559465
57	0x3cc674ac	0.024225555
58	0xbd19e1d4	-0.037568882
59	0xbc82a760	-0.015948951
60	0x3d297b16	0.04137715
61	0x3ba94493	0.0051656454
62	0x3cebecaf	0.028799383
63	0xbd25f17d	-0.040513504
64	0x3bc24613	0.0059287637
65	0x3cb80dc6	0.022467505
66	0xbd85630e	-0.06513034
67	0xbcb0116a	-0.021492679
68	0xbd1cfa5a	-0.03832469
69	0xbc3a4bd2	-0.011370616
70	0xbd3832f5	-0.04497047
71	0x3c7738ae	0.015089197
72	0x3d8e52ba	0.069493726
73	0xbc4f5b84	-0.012656096
74	0xbc92df14	-0.017928638
75	0xbd3c4206	-0.045961402
76	0xbd4448c0	-0.047920942
77	0xbd1acf41	-0.03779531
78	0x3995e078	0.00028586737
79	0x3d2b14a2	0.041767724
80	0x3c69dd16	0.014273902
81	0xbd17e216	-0.037080847
82	0x3b850d11	0.0040603955
83	0x3c22ffe5	0.009948705
84	0xbce006c6	-0.02734698
85	0x3a308b83	0.0006734656
86	0x3cf82179	0.030289399
87	0x3d6214fb	0.05519579
88	0xbcf96560	-0.030443847
89	0x3d8e1af7	0.06938737
90	0x3cbd0a35	0.023076156
91	0x3d2d9bcb	0.042384904
92	0x3d9156df	0.070966475
93	0xbab42e36	-0.0013746682
94	0x3c3c3424	0.011487041
95	0xbb53234e	-0.0032217088
96	0xbcd4a852	-0.025959168
97	0xbc7c1611	-0.01538612
98	0x3cdb190b	0.02674534
99	0xbcf24946	-0.029575955
100	0xbc53df20	-0.012931615
101	0x3b9c1aa7	0.0047639194
102	0x3b4b5872	0.003102806
103	0xbc118300	-0.0088813305
104	0x3d2442ac	0.040102646
105	0x3ca2a90e	0.019856002
106	0x3bc5d25b	0.006037039
107	0x3d78294b	0.060586255
108	0xbbd6d44b	-0.006556069
109	0xbb8dafbf	-0.004323929
110	0xbcbc3aed	-0.022977317
111	0x3c404c73	0.011736977
112	0x3d143c9b	0.03619061
113	0xbb6234bd	-0.0034516298
114	0x3d80abeb	0.06282791
115	0xbc41afce	-0.0118217
116	0x3d482257	0.048860874
117	0x3ccba418	0.02485852
118	0xbcc2c731	-0.023776622
119	0xbd181f85	-0.037139434
120	0x3ca26288	0.019822374
121	0x3c74b557	0.014935813
122	0x3d3469ad	0.044046093
123	0xbc1bee52	-0.009517269
124	0x3ce22580	0.027605772
125	0x3a77e77c	0.0009456796
126	0xbaf142c7	-0.0018406742
127	0x3d98e532	0.074655905

fc.weight f4 [10, 128]
0	0xbd5120fd	-0.05105685
1	0x3d1018dc	0.035179958
2	0x3d7d3033	0.061813544
3	0xbcb69355	-0.02228705
4	0x39fffd30	0.0004882603
5	0x3da61684	0.08109763
6	0x3be332fd	0.0069335685
7	0xbc0d4609	-0.008622655
8	0xbd7d3f10	-0.06182772
9	0x3d99384b	0.0748144
10	0xbd63cf1e	-0.055617444
11	0x3c8f3cc9	0.01748504
12	0x3cfa3d4f	0.030546812
13	0x3dbd983a	0.092575505
14	0x3d46b0f9	0.048508618
15	0x3d75189b	0.05983792
16	0x3da03b51	0.07823814
17	0xbd3012a4	-0.042986527
18	0xbcbb76f5	-0.022883872
19	0xbd24a7f4	-0.040199235
20	0x3bf6e261	0.0075343107
21	0x3db4a2d2	0.08820118
22	0xbd8b0fd6	-0.0679013
23	0x3d4294e6	0.047505282
24	0xbb69ab58	-0.0035655107
25	0x3d1fb47e	0.03899049
26	0xbd14ae3a	-0.036298968
27	0x3c5b7b84	0.013396148
28	0xbcede96d	-0.02904197
29	0x3d8d48ce	0.06898652
30	0x3c74c732	0.01494007
31	0xbc58c7f0	-0.013231263
32	0xbc2fd7f4	-0.01073264
33	0x3d8a3be5	0.06749705
34	0x3da237ed	0.07920823
35	0x3d6e5f62	0.058196433
36	0xbbdde6f8	-0.0067719184
37	0x3d7708a6	0.060310982
38	0xbd4c9f15	-0.0499564
39	0x3da6589b	0.08122369
40	0xbcb1f078	-0.02172111
41	0xbd0b4bf0	-0.034007967
42	0x3affe53d	0.0019523274
43	0xbd83cc46	-0.064354464
44	0xbb3794e7	-0.0028012337
45	0x3ca4106e	0.020027366
46	0xbd1219c9	-0.035669122
47	0x3db6f2f6	0.0893306
48	0xbd89c3f4	-0.06726828
49	0x3d127295	0.035753805
50	0xbd16726a	-0.036730208
51	0xbd9a5dfb	-0.075374566
52	0xbdb3039d	-0.087409236
53	0x3d58d2a3	0.052935254
54	0x3ce4d674	0.02793429
55	0xbdafc1f9	-0.08581919
56	0xbc452e4d	-0.012034965
57	0xbcef9a62	-0.02924842
58	0x3d928fd6	0.07156341
59	0x3da7ea52	0.0819899
60	0xbcf6536d	-0.030069077
61	0x3d597d0b	0.053097766
62	0xbd3f43e1	-0.046695594
63	0x3d04076c	0.03223364
64	0x3da32421	0.079658754
65	0xbc4678c8	-0.012113757
66	0xbbdbd30c	-0.0067085084
67	0x3d01cde1	0.031690482
68	0x3d2d0765	0.04224338
69	0x3d4fdb18	0.050746053
70	0xbc5c5db1	-0.013450072
71	0xbd8f9c4d	-0.07012234
72	0x3b850b54	0.0040601883
73	0x3d18315a	0.03715644
74	0xbd88c840	-0.0667882
75	0x3d82db3b	0.06389471
76	0xbdc201d8	-0.09473008
77	0x3d87ef71	0.06637467
78	0xbd18007c	-0.037109837
79	0x3c082d40	0.00831157
80	0xbd96d0b3	-0.07364025
81	0x3d931f9f	0.071837656
82	0x3d885cba	0.06658311
83	0xbd6686b3	-0.056280803
84	0x3d5a07ee	0.05323022
85	0xbd3828ca	-0.044960774
86	0x3c0931c2	0.00837368
87	0x3d087732	0.0333168
88	0x3d32cd74	0.043652967
89	0xbdae3793	-0.08506694
90	0xbdb71c8e	-0.08940993
91	0xbd904f11	-0.07046331
92	0xbcfc653b	-0.03080999
93	0x3d710b63	0.05884875
94	0xbdb1871e	-0.0866835
95	0xbbded9dc	-0.006800873
96	0x3d151750	0.036399186
97	0xbcf8a3d1	-0.030351551
98	0x3d8e8c8c	0.06960401
99	0x3d1ef7b2	0.03881044
100	0xbda176ab	-0.07883962
101	0xbd65424e	-0.055971436
102	0xbd36ab74	-0.044597104
103	0x3d78b95a	0.06072364
104	0x3d7daf42	0.061934717
105	0xbd94409e	-0.07238887
106	0xbc2f6146	-0.010704344
107	0xbd84c6e7	-0.0648325
108	0xbd232e0d	-0.03983884
109	0xbd8c4ec9	-0.068509646
110	0xbd998cb9	-0.07497544
111	0x3cba35db	0.022730758
112	0x3d92bab4	0.07164517
113	0xbc9555ae	-0.018229332
114	0xbdb0c0c2	-0.08630516
115	0xbc15537b	-0.009114142
116	0x3cc3f002	0.023918156
117	0x3d03337f	0.032031532
118	0x3ca59559	0.020212816
119	0x3d9847f1	0.07435597
120	0x3da00668	0.07813722
121	0xbd333bbb	-0.043758135
122	0xbd28d3c0	-0.041217566
123	0x3d57aa48	0.052652627
124	0xbd6fe3bf	-0.058566805
125	0x3cad9ec3	0.021193868
126	0xbbc0197a	-0.005862412
127	0xbd055490	-0.03255135
128	0xbd2fe10e	-0.04293924
129	0x3d86c1b9	0.065799184
130	0x3b7e6054	0.003881474
131	0x3d0de783	0.034644615
132	0xbbb60ba7	-0.0055555883
133	0xbd8c9047	-0.06863456
134	0xbc266b2e	-0.01015739
135	0x3d9575ea	0.07297881
136	0x3d2ca6bf	0.04215121
137	0x3d8906c4	0.066907436
138	0x3ce8bb82	0.028409723
139	0x3c903405	0.01760293
140	0xbc9e89b8	-0.019352779
141	0x3d94d702	0.07267572
142	0xbd4ed6f5	-0.050497968
143	0x3d517ba9	0.051143322
144	0x3d9179a1	0.07103277
145	0x3d9b91e4	0.07596186
146	0x3d94b432	0.07260932
147	0xbd506c60	-0.050884604
148	0xbbf3681c	-0.0074281823
149	0xbd6fb59a	-0.058522798
150	0xbcd2233c	-0.025651567
151	0xbd94910f	-0.0725423
152	0xbce61ee9	-0.028090911
153	0xbc926f43	-0.01787532
154	0x3d7f4743	0.06232382
155	0x3ca3d8c2	0.02000082
156	0xbd955f87	-0.07293611
157	0x3d828071	0.063721545
158	0x3ba105c6	0.0049140183
159	0xbd6ee920	-0.058327794
160	0x3d8de239	0.06927914
161	0x3ccecc39	0.025243865
162	0xba92835f	-0.0011178068
163	0x3d8bcfa3	0.06826713
164	0xbd23c02e	-0.0399782
165	0x3d00422a	0.0313131
166	0xbcc13156	-0.023583096
167	0xbcdffca8	-0.027342156
168	0x3d5bee16	0.053693853
169	0x3d3b7201	0.04576302
170	0xbc9eef3c	-0.019401185
171	0xbd773cfd	-0.060360897
172	0x3d3caeef	0.046065267
173	0xbcfc56b5	-0.030803064
174	0xbdaf1db5	-0.08550588
175	0xbd755163	-0.05989207
176	0x3d88b7eb	0.066757046
177	0xbc1d0d0d	-0.009585631
178	0xbd2b5b81	-0.04183531
179	0xbd13ff5e	-0.03613221
180	0xbca40526	-0.020021986
181	0xbdbf2d76	-0.09334843
182	0xbd94d30e	-0.07266818
183	0xbdb7af20	-0.08968949
184	0xbd892994	-0.066973835
185	0x3cbaafb9	0.02278887
186	0x3d6d814f	0.057984646
187	0xbd81bdef	-0.06335055
188	0x3d85d263	0.06534269
189	0x3da0fb5a	0.078604415
190	0xbd66ffa7	-0.056396153
191	0x3d6862de	0.056734912
192	0xbdc05e96	-0.09393041
193	0x3cbf7683	0.02337194
194	0xbd812aa0	-0.06306958
195	0xbc1e7a6a	-0.0096727405
196	0xbb469713	-0.003030245
197	0x3d2c2cc3	0.042034876
198	0x3d075627	0.033041146
199	0x3cf1be64	0.02950973
200	0x3d85d4b4	0.065347105
201	0x3d57501c	0.052566633
202	0x3d915b34	0.07097474
203	0x3c8fe4aa	0.01756509
204	0x3d9be95f	0.076128714
205	0x3d8d5dce	0.069026574
206	0xbd913b13	-0.07091346
207	0xbc9f6602	-0.01945782
208	0xbd56ade9	-0.052411947
209	0x3db0b50d	0.08628283
210	0x3dae6fc3	0.085174106
211	0xbc59331d	-0.013256815
212	0xbd6205bc	-0.05518125
213	0x3c844417	0.016145749
214	0x3d50fbf9	0.05102155
215	0x3bb86f2d	0.0056284876
216	0xbcb45e05	-0.022017488
217	0xbd380779	-0.044929
218	0xbd992fac	-0.07479796
219	0xbcb4d873	-0.022075867
220	0x3d94ba86	0.07262139
221	0xbd3f90e4	-0.046769038
222	0xbc36771c	-0.011136796
223	0xbdaec3c5	-0.08533434
224	0xbdb9b711	-0.0906812
225	0x3d1fe647	0.03903797
226	0x3ce053b5	0.027383665
227	0x3cd5e272	0.026108954
228	0xbcd418c3	-0.025890714
229	0x3d4c3582	0.049855717
230	0x3dae9146	0.085238025
231	0xbcb07180	-0.021538496
232	0x3c6c75a3	0.014432344
233	0xbbb01048	-0.0053730346
234	0xbc2e443e	-0.010636387
235	0xbd368a6b	-0.0445656
236	0xbd790e93	-0.060804915
237	0x3d37a39b	0.04483376
238	0xbd8f1ae1	-0.069875486
239	0x3d2c9524	0.04213442
240	0xbcf839f4	-0.030301072
241	0x3be02753	0.0068406253
242	0x3cedfb50	0.0290505
243	0x3cea754a	0.02862038
244	0xbd2898b8	-0.04116127
245	0xbd332d4e	-0.043744378
246	0x3d0df666	0.034658812
247	0xbd184dd2	-0.03718359
248	0xbc9882d4	-0.018617071
249	0x3d8e82a3	0.06958511
250	0xbd3a9d11	-0.045559946
251	0xbd73957a	-0.059468724
252	0x3d38f70f	0.04515749
253	0xbd9b828e	-0.07593261
254	0x3d80d8df	0.06291365
255	0xbdbdad3c	-0.092615575

fc.bias f4 [10]
0	0x3d5e302f	0.05424517
1	0x3c646713	0.01394059
2	0xbd23485e	-0.039863937
3	0xbc9de53b	-0.019274345
4	0x3c76173a	0.015020186
5	0x3d1cb402	0.038257606
6	0xbc7bd421	-0.0153704
7	0xbda74e7e	-0.08169268
8	0xbd027b84	-0.031856075
9	0x3d76779e	0.06017267
